…
[2023-11-24 18:50:42,736] INFO: Warning: module EdgeConvBlock is treated as a zero-op.
[2023-11-24 18:50:42,736] INFO: Warning: module Dropout is treated as a zero-op.
[2023-11-24 18:50:42,736] INFO: Warning: module ParticleNet is treated as a zero-op.
[2023-11-24 18:50:42,736] INFO: Warning: module ParticleNetTagger1Path is treated as a zero-op.
[2023-11-24 18:50:43,416] INFO: ParticleNetTagger1Path(
  |0.577 M, 100.000% Params, 0.441 GMac, 100.000% MACs|
  (pf_conv): FeatureConv(
    |0.0 M, 0.035% Params, 0.0 GMac, 0.005% MACs|
    (conv): Sequential(
      |0.0 M, 0.035% Params, 0.0 GMac, 0.005% MACs|
      (0): BatchNorm1d(4, eps=1e-05, momentum=0.1, affine=True, track_running_stats=True, |0.0 M, 0.001% Params, 0.0 GMac, 0.000% MACs|)
      (1): Conv1d(4, 32, kernel_size=(1,), stride=(1,), bias=False, |0.0 M, 0.022% Params, 0.0 GMac, 0.003% MACs|)
      (2): BatchNorm1d(32, eps=1e-05, momentum=0.1, affine=True, track_running_stats=True, |0.0 M, 0.011% Params, 0.0 GMac, 0.001% MACs|)
      (3): ReLU(|0.0 M, 0.000% Params, 0.0 GMac, 0.001% MACs|)
    )
  )
  (pn): ParticleNet(
    |0.577 M, 99.965% Params, 0.441 GMac, 99.995% MACs|
    (edge_convs): ModuleList(
      |0.305 M, 52.823% Params, 0.424 GMac, 96.047% MACs|
      (0): EdgeConvBlock(
        |0.015 M, 2.575% Params, 0.021 GMac, 4.716% MACs|
        (convs): ModuleList(
          |0.012 M, 2.131% Params, 0.02 GMac, 4.456% MACs|
          (0): Conv2d(64, 64, kernel_size=(1, 1), stride=(1, 1), bias=False, |0.004 M, 0.710% Params, 0.007 GMac, 1.485% MACs|)
          (1): Conv2d(64, 64, kernel_size=(1, 1), stride=(1, 1), bias=False, |0.004 M, 0.710% Params, 0.007 GMac, 1.485% MACs|)
          (2): Conv2d(64, 64, kernel_size=(1, 1), stride=(1, 1), bias=False, |0.004 M, 0.710% Params, 0.007 GMac, 1.485% MACs|)
        )
        (bns): ModuleList(
          |0.0 M, 0.067% Params, 0.001 GMac, 0.139% MACs|
          (0): BatchNorm2d(64, eps=1e-05, momentum=0.1, affine=True, track_running_stats=True, |0.0 M, 0.022% Params, 0.0 GMac, 0.046% MACs|)
          (1): BatchNorm2d(64, eps=1e-05, momentum=0.1, affine=True, track_running_stats=True, |0.0 M, 0.022% Params, 0.0 GMac, 0.046% MACs|)
          (2): BatchNorm2d(64, eps=1e-05, momentum=0.1, affine=True, track_running_stats=True, |0.0 M, 0.022% Params, 0.0 GMac, 0.046% MACs|)
        )
        (acts): ModuleList(
          |0.0 M, 0.000% Params, 0.0 GMac, 0.070% MACs|
          (0): ReLU(|0.0 M, 0.000% Params, 0.0 GMac, 0.023% MACs|)
          (1): ReLU(|0.0 M, 0.000% Params, 0.0 GMac, 0.023% MACs|)
          (2): ReLU(|0.0 M, 0.000% Params, 0.0 GMac, 0.023% MACs|)
        )
        (sc): Conv1d(32, 64, kernel_size=(1,), stride=(1,), bias=False, |0.002 M, 0.355% Params, 0.0 GMac, 0.046% MACs|)
        (sc_bn): BatchNorm1d(64, eps=1e-05, momentum=0.1, affine=True, track_running_stats=True, |0.0 M, 0.022% Params, 0.0 GMac, 0.003% MACs|)
        (sc_act): ReLU(|0.0 M, 0.000% Params, 0.0 GMac, 0.001% MACs|)
      )
      (1): EdgeConvBlock(
        |0.058 M, 10.121% Params, 0.081 GMac, 18.437% MACs|
        (convs): ModuleList(
          |0.049 M, 8.523% Params, 0.079 GMac, 17.825% MACs|
          (0): Conv2d(128, 128, kernel_size=(1, 1), stride=(1, 1), bias=False, |0.016 M, 2.841% Params, 0.026 GMac, 5.942% MACs|)
          (1): Conv2d(128, 128, kernel_size=(1, 1), stride=(1, 1), bias=False, |0.016 M, 2.841% Params, 0.026 GMac, 5.942% MACs|)
          (2): Conv2d(128, 128, kernel_size=(1, 1), stride=(1, 1), bias=False, |0.016 M, 2.841% Params, 0.026 GMac, 5.942% MACs|)
        )
        (bns): ModuleList(
          |0.001 M, 0.133% Params, 0.001 GMac, 0.279% MACs|
          (0): BatchNorm2d(128, eps=1e-05, momentum=0.1, affine=True, track_running_stats=True, |0.0 M, 0.044% Params, 0.0 GMac, 0.093% MACs|)
          (1): BatchNorm2d(128, eps=1e-05, momentum=0.1, affine=True, track_running_stats=True, |0.0 M, 0.044% Params, 0.0 GMac, 0.093% MACs|)
          (2): BatchNorm2d(128, eps=1e-05, momentum=0.1, affine=True, track_running_stats=True, |0.0 M, 0.044% Params, 0.0 GMac, 0.093% MACs|)
        )
        (acts): ModuleList(
          |0.0 M, 0.000% Params, 0.001 GMac, 0.139% MACs|
          (0): ReLU(|0.0 M, 0.000% Params, 0.0 GMac, 0.046% MACs|)
          (1): ReLU(|0.0 M, 0.000% Params, 0.0 GMac, 0.046% MACs|)
          (2): ReLU(|0.0 M, 0.000% Params, 0.0 GMac, 0.046% MACs|)
        )
        (sc): Conv1d(64, 128, kernel_size=(1,), stride=(1,), bias=False, |0.008 M, 1.420% Params, 0.001 GMac, 0.186% MACs|)
        (sc_bn): BatchNorm1d(128, eps=1e-05, momentum=0.1, affine=True, track_running_stats=True, |0.0 M, 0.044% Params, 0.0 GMac, 0.006% MACs|)
        (sc_act): ReLU(|0.0 M, 0.000% Params, 0.0 GMac, 0.003% MACs|)
      )
      (2): EdgeConvBlock(
        |0.231 M, 40.128% Params, 0.322 GMac, 72.894% MACs|
        (convs): ModuleList(
          |0.197 M, 34.091% Params, 0.315 GMac, 71.299% MACs|
          (0): Conv2d(256, 256, kernel_size=(1, 1), stride=(1, 1), bias=False, |0.066 M, 11.364% Params, 0.105 GMac, 23.766% MACs|)
          (1): Conv2d(256, 256, kernel_size=(1, 1), stride=(1, 1), bias=False, |0.066 M, 11.364% Params, 0.105 GMac, 23.766% MACs|)
          (2): Conv2d(256, 256, kernel_size=(1, 1), stride=(1, 1), bias=False, |0.066 M, 11.364% Params, 0.105 GMac, 23.766% MACs|)
        )
        (bns): ModuleList(
          |0.002 M, 0.266% Params, 0.002 GMac, 0.557% MACs|
          (0): BatchNorm2d(256, eps=1e-05, momentum=0.1, affine=True, track_running_stats=True, |0.001 M, 0.089% Params, 0.001 GMac, 0.186% MACs|)
          (1): BatchNorm2d(256, eps=1e-05, momentum=0.1, affine=True, track_running_stats=True, |0.001 M, 0.089% Params, 0.001 GMac, 0.186% MACs|)
          (2): BatchNorm2d(256, eps=1e-05, momentum=0.1, affine=True, track_running_stats=True, |0.001 M, 0.089% Params, 0.001 GMac, 0.186% MACs|)
        )
        (acts): ModuleList(
          |0.0 M, 0.000% Params, 0.001 GMac, 0.279% MACs|
          (0): ReLU(|0.0 M, 0.000% Params, 0.0 GMac, 0.093% MACs|)
          (1): ReLU(|0.0 M, 0.000% Params, 0.0 GMac, 0.093% MACs|)
          (2): ReLU(|0.0 M, 0.000% Params, 0.0 GMac, 0.093% MACs|)
        )
        (sc): Conv1d(128, 256, kernel_size=(1,), stride=(1,), bias=False, |0.033 M, 5.682% Params, 0.003 GMac, 0.743% MACs|)
        (sc_bn): BatchNorm1d(256, eps=1e-05, momentum=0.1, affine=True, track_running_stats=True, |0.001 M, 0.089% Params, 0.0 GMac, 0.012% MACs|)
        (sc_act): ReLU(|0.0 M, 0.000% Params, 0.0 GMac, 0.006% MACs|)
      )
    )
    (fusion_block): Sequential(
      |0.173 M, 29.963% Params, 0.017 GMac, 3.925% MACs|
      (0): Conv1d(448, 384, kernel_size=(1,), stride=(1,), bias=False, |0.172 M, 29.830% Params, 0.017 GMac, 3.899% MACs|)
      (1): BatchNorm1d(384, eps=1e-05, momentum=0.1, affine=True, track_running_stats=True, |0.001 M, 0.133% Params, 0.0 GMac, 0.017% MACs|)
      (2): ReLU(|0.0 M, 0.000% Params, 0.0 GMac, 0.009% MACs|)
    )
    (fc): Sequential(
      |0.099 M, 17.179% Params, 0.0 GMac, 0.023% MACs|
      (0): Sequential(
        |0.099 M, 17.090% Params, 0.0 GMac, 0.022% MACs|
        (0): Linear(in_features=384, out_features=256, bias=True, |0.099 M, 17.090% Params, 0.0 GMac, 0.022% MACs|)
        (1): ReLU(|0.0 M, 0.000% Params, 0.0 GMac, 0.000% MACs|)
        (2): Dropout(p=0.1, inplace=False, |0.0 M, 0.000% Params, 0.0 GMac, 0.000% MACs|)
      )
      (1): Linear(in_features=256, out_features=2, bias=True, |0.001 M, 0.089% Params, 0.0 GMac, 0.000% MACs|)
    )
  )
)
[2023-11-24 18:50:43,420] INFO: Computational complexity:       0.44 GMac
[2023-11-24 18:50:43,421] INFO: Number of parameters:           576.71 k
[2023-11-24 18:50:47,460] INFO: Using loss function CrossEntropyLoss() with options {}
[2023-11-24 18:50:47,461] INFO: Optimizer options: {}
--------------------------------------------------
…
